…
     },
     "metadata": {},
     "output_type": "display_data"
    },
    {
     "name": "stderr",
     "output_type": "stream",
     "text": [
      "Training Epoch 1/1: 100%|██████████| 338/338 [1:47:00<00:00, 18.99s/it]\n"
     ]
    },
    {
     "name": "stdout",
     "output_type": "stream",
     "text": [
      "Epoch 1 completed. Average Loss: 0.10090945566282469\n"
     ]
    },
    {
     "name": "stderr",
     "output_type": "stream",
     "text": [
      "self.unet=PeftModel(\n",
      "  (base_model): LoraModel(\n",
      "    (model): UNet2DConditionModel(\n",
      "      (conv_in): Conv2d(4, 320, kernel_size=(3, 3), stride=(1, 1), padding=(1, 1))\n",
      "      (time_proj): Timesteps()\n",
      "      (time_embedding): TimestepEmbedding(\n",
      "        (linear_1): Linear(in_features=320, out_features=1280, bias=True)\n",
      "        (act): SiLU()\n",
      "        (linear_2): Linear(in_features=1280, out_features=1280, bias=True)\n",
      "      )\n",
      "      (down_blocks): ModuleList(\n",
      "        (0): CrossAttnDownBlock2D(\n",
      "          (attentions): ModuleList(\n",
      "            (0-1): 2 x Transformer2DModel(\n",
      "              (norm): GroupNorm(32, 320, eps=1e-06, affine=True)\n",
      "              (proj_in): lora.Linear(\n",
      "                (base_layer): Linear(in_features=320, out_features=320, bias=True)\n",
      "                (lora_dropout): ModuleDict(\n",
      "                  (default): Dropout(p=0.1, inplace=False)\n",
      "                )\n",
      "                (lora_A): ModuleDict(\n",
      "                  (default): Linear(in_features=320, out_features=4, bias=False)\n",
      "                )\n",
      "                (lora_B): ModuleDict(\n",
      "                  (default): Linear(in_features=4, out_features=320, bias=False)\n",
      "                )\n",
      "                (lora_embedding_A): ParameterDict()\n",
      "                (lora_embedding_B): ParameterDict()\n",
      "                (lora_magnitude_vector): ModuleDict()\n",
      "              )\n",
      "              (transformer_blocks): ModuleList(\n",
      "                (0): BasicTransformerBlock(\n",
      "                  (norm1): LayerNorm((320,), eps=1e-05, elementwise_affine=True)\n",
      "                  (attn1): Attention(\n",
      "                    (to_q): Linear(in_features=320, out_features=320, bias=False)\n",
      "                    (to_k): Linear(in_features=320, out_features=320, bias=False)\n",
      "                    (to_v): Linear(in_features=320, out_features=320, bias=False)\n",
      "                    (to_out): ModuleList(\n",
      "                      (0): Linear(in_features=320, out_features=320, bias=True)\n",
      "                      (1): Dropout(p=0.0, inplace=False)\n",
      "                    )\n",
      "                  )\n",
      "                  (norm2): LayerNorm((320,), eps=1e-05, elementwise_affine=True)\n",
      "                  (attn2): Attention(\n",
      "                    (to_q): Linear(in_features=320, out_features=320, bias=False)\n",
      "                    (to_k): Linear(in_features=1024, out_features=320, bias=False)\n",
      "                    (to_v): Linear(in_features=1024, out_features=320, bias=False)\n",
      "                    (to_out): ModuleList(\n",
      "                      (0): Linear(in_features=320, out_features=320, bias=True)\n",
      "                      (1): Dropout(p=0.0, inplace=False)\n",
      "                    )\n",
      "                  )\n",
      "                  (norm3): LayerNorm((320,), eps=1e-05, elementwise_affine=True)\n",
      "                  (ff): FeedForward(\n",
      "                    (net): ModuleList(\n",
      "                      (0): GEGLU(\n",
      "                        (proj): Linear(in_features=320, out_features=2560, bias=True)\n",
      "                      )\n",
      "                      (1): Dropout(p=0.0, inplace=False)\n",
      "                      (2): Linear(in_features=1280, out_features=320, bias=True)\n",
      "                    )\n",
      "                  )\n",
      "                )\n",
      "              )\n",
      "              (proj_out): Linear(in_features=320, out_features=320, bias=True)\n",
      "            )\n",
      "          )\n",
      "          (resnets): ModuleList(\n",
      "            (0-1): 2 x ResnetBlock2D(\n",
      "              (norm1): GroupNorm(32, 320, eps=1e-05, affine=True)\n",
      "              (conv1): Conv2d(320, 320, kernel_size=(3, 3), stride=(1, 1), padding=(1, 1))\n",
      "              (time_emb_proj): Linear(in_features=1280, out_features=320, bias=True)\n",
      "              (norm2): GroupNorm(32, 320, eps=1e-05, affine=True)\n",
      "              (dropout): Dropout(p=0.0, inplace=False)\n",
      "              (conv2): Conv2d(320, 320, kernel_size=(3, 3), stride=(1, 1), padding=(1, 1))\n",
      "              (nonlinearity): SiLU()\n",
      "            )\n",
      "          )\n",
      "          (downsamplers): ModuleList(\n",
      "            (0): Downsample2D(\n",
      "              (conv): Conv2d(320, 320, kernel_size=(3, 3), stride=(2, 2), padding=(1, 1))\n",
      "            )\n",
      "          )\n",
      "        )\n",
      "        (1): CrossAttnDownBlock2D(\n",
      "          (attentions): ModuleList(\n",
      "            (0-1): 2 x Transformer2DModel(\n",
      "              (norm): GroupNorm(32, 640, eps=1e-06, affine=True)\n",
      "              (proj_in): lora.Linear(\n",
      "                (base_layer): Linear(in_features=640, out_features=640, bias=True)\n",
      "                (lora_dropout): ModuleDict(\n",
      "                  (default): Dropout(p=0.1, inplace=False)\n",
      "                )\n",
      "                (lora_A): ModuleDict(\n",
      "                  (default): Linear(in_features=640, out_features=4, bias=False)\n",
      "                )\n",
      "                (lora_B): ModuleDict(\n",
      "                  (default): Linear(in_features=4, out_features=640, bias=False)\n",
      "                )\n",
      "                (lora_embedding_A): ParameterDict()\n",
      "                (lora_embedding_B): ParameterDict()\n",
      "                (lora_magnitude_vector): ModuleDict()\n",
      "              )\n",
      "              (transformer_blocks): ModuleList(\n",
      "                (0): BasicTransformerBlock(\n",
      "                  (norm1): LayerNorm((640,), eps=1e-05, elementwise_affine=True)\n",
      "                  (attn1): Attention(\n",
      "                    (to_q): Linear(in_features=640, out_features=640, bias=False)\n",
      "                    (to_k): Linear(in_features=640, out_features=640, bias=False)\n",
      "                    (to_v): Linear(in_features=640, out_features=640, bias=False)\n",
      "                    (to_out): ModuleList(\n",
      "                      (0): Linear(in_features=640, out_features=640, bias=True)\n",
      "                      (1): Dropout(p=0.0, inplace=False)\n",
      "                    )\n",
      "                  )\n",
      "                  (norm2): LayerNorm((640,), eps=1e-05, elementwise_affine=True)\n",
      "                  (attn2): Attention(\n",
      "                    (to_q): Linear(in_features=640, out_features=640, bias=False)\n",
      "                    (to_k): Linear(in_features=1024, out_features=640, bias=False)\n",
      "                    (to_v): Linear(in_features=1024, out_features=640, bias=False)\n",
      "                    (to_out): ModuleList(\n",
      "                      (0): Linear(in_features=640, out_features=640, bias=True)\n",
      "                      (1): Dropout(p=0.0, inplace=False)\n",
      "                    )\n",
      "                  )\n",
      "                  (norm3): LayerNorm((640,), eps=1e-05, elementwise_affine=True)\n",
      "                  (ff): FeedForward(\n",
      "                    (net): ModuleList(\n",
      "                      (0): GEGLU(\n",
      "                        (proj): Linear(in_features=640, out_features=5120, bias=True)\n",
      "                      )\n",
      "                      (1): Dropout(p=0.0, inplace=False)\n",
      "                      (2): Linear(in_features=2560, out_features=640, bias=True)\n",
      "                    )\n",
      "                  )\n",
      "                )\n",
      "              )\n",
      "              (proj_out): Linear(in_features=640, out_features=640, bias=True)\n",
      "            )\n",
      "          )\n",
      "          (resnets): ModuleList(\n",
      "            (0): ResnetBlock2D(\n",
      "              (norm1): GroupNorm(32, 320, eps=1e-05, affine=True)\n",
      "              (conv1): Conv2d(320, 640, kernel_size=(3, 3), stride=(1, 1), padding=(1, 1))\n",
      "              (time_emb_proj): Linear(in_features=1280, out_features=640, bias=True)\n",
      "              (norm2): GroupNorm(32, 640, eps=1e-05, affine=True)\n",
      "              (dropout): Dropout(p=0.0, inplace=False)\n",
      "              (conv2): Conv2d(640, 640, kernel_size=(3, 3), stride=(1, 1), padding=(1, 1))\n",
      "              (nonlinearity): SiLU()\n",
      "              (conv_shortcut): Conv2d(320, 640, kernel_size=(1, 1), stride=(1, 1))\n",
      "            )\n",
      "            (1): ResnetBlock2D(\n",
      "              (norm1): GroupNorm(32, 640, eps=1e-05, affine=True)\n",
      "              (conv1): Conv2d(640, 640, kernel_size=(3, 3), stride=(1, 1), padding=(1, 1))\n",
      "              (time_emb_proj): Linear(in_features=1280, out_features=640, bias=True)\n",
      "              (norm2): GroupNorm(32, 640, eps=1e-05, affine=True)\n",
      "              (dropout): Dropout(p=0.0, inplace=False)\n",
      "              (conv2): Conv2d(640, 640, kernel_size=(3, 3), stride=(1, 1), padding=(1, 1))\n",
      "              (nonlinearity): SiLU()\n",
      "            )\n",
      "          )\n",
      "          (downsamplers): ModuleList(\n",
      "            (0): Downsample2D(\n",
      "              (conv): Conv2d(640, 640, kernel_size=(3, 3), stride=(2, 2), padding=(1, 1))\n",
      "            )\n",
      "          )\n",
      "        )\n",
      "        (2): CrossAttnDownBlock2D(\n",
      "          (attentions): ModuleList(\n",
      "            (0-1): 2 x Transformer2DModel(\n",
      "              (norm): GroupNorm(32, 1280, eps=1e-06, affine=True)\n",
      "              (proj_in): lora.Linear(\n",
      "                (base_layer): Linear(in_features=1280, out_features=1280, bias=True)\n",
      "                (lora_dropout): ModuleDict(\n",
      "                  (default): Dropout(p=0.1, inplace=False)\n",
      "                )\n",
      "                (lora_A): ModuleDict(\n",
      "                  (default): Linear(in_features=1280, out_features=4, bias=False)\n",
      "                )\n",
      "                (lora_B): ModuleDict(\n",
      "                  (default): Linear(in_features=4, out_features=1280, bias=False)\n",
      "                )\n",
      "                (lora_embedding_A): ParameterDict()\n",
      "                (lora_embedding_B): ParameterDict()\n",
      "                (lora_magnitude_vector): ModuleDict()\n",
      "              )\n",
      "              (transformer_blocks): ModuleList(\n",
      "                (0): BasicTransformerBlock(\n",
      "                  (norm1): LayerNorm((1280,), eps=1e-05, elementwise_affine=True)\n",
      "                  (attn1): Attention(\n",
      "                    (to_q): Linear(in_features=1280, out_features=1280, bias=False)\n",
      "                    (to_k): Linear(in_features=1280, out_features=1280, bias=False)\n",
      "                    (to_v): Linear(in_features=1280, out_features=1280, bias=False)\n",
      "                    (to_out): ModuleList(\n",
      "                      (0): Linear(in_features=1280, out_features=1280, bias=True)\n",
      "                      (1): Dropout(p=0.0, inplace=False)\n",
      "                    )\n",
      "                  )\n",
      "                  (norm2): LayerNorm((1280,), eps=1e-05, elementwise_affine=True)\n",
      "                  (attn2): Attention(\n",
      "                    (to_q): Linear(in_features=1280, out_features=1280, bias=False)\n",
      "                    (to_k): Linear(in_features=1024, out_features=1280, bias=False)\n",
      "                    (to_v): Linear(in_features=1024, out_features=1280, bias=False)\n",
      "                    (to_out): ModuleList(\n",
      "                      (0): Linear(in_features=1280, out_features=1280, bias=True)\n",
      "                      (1): Dropout(p=0.0, inplace=False)\n",
      "                    )\n",
      "                  )\n",
      "                  (norm3): LayerNorm((1280,), eps=1e-05, elementwise_affine=True)\n",
      "                  (ff): FeedForward(\n",
      "                    (net): ModuleList(\n",
      "                      (0): GEGLU(\n",
      "                        (proj): Linear(in_features=1280, out_features=10240, bias=True)\n",
      "                      )\n",
      "                      (1): Dropout(p=0.0, inplace=False)\n",
      "                      (2): Linear(in_features=5120, out_features=1280, bias=True)\n",
      "                    )\n",
      "                  )\n",
      "                )\n",
      "              )\n",
      "              (proj_out): Linear(in_features=1280, out_features=1280, bias=True)\n",
      "            )\n",
      "          )\n",
      "          (resnets): ModuleList(\n",
      "            (0): ResnetBlock2D(\n",
      "              (norm1): GroupNorm(32, 640, eps=1e-05, affine=True)\n",
      "              (conv1): Conv2d(640, 1280, kernel_size=(3, 3), stride=(1, 1), padding=(1, 1))\n",
      "              (time_emb_proj): Linear(in_features=1280, out_features=1280, bias=True)\n",
      "              (norm2): GroupNorm(32, 1280, eps=1e-05, affine=True)\n",
      "              (dropout): Dropout(p=0.0, inplace=False)\n",
      "              (conv2): Conv2d(1280, 1280, kernel_size=(3, 3), stride=(1, 1), padding=(1, 1))\n",
      "              (nonlinearity): SiLU()\n",
      "              (conv_shortcut): Conv2d(640, 1280, kernel_size=(1, 1), stride=(1, 1))\n",
      "            )\n",
      "            (1): ResnetBlock2D(\n",
      "              (norm1): GroupNorm(32, 1280, eps=1e-05, affine=True)\n",
      "              (conv1): Conv2d(1280, 1280, kernel_size=(3, 3), stride=(1, 1), padding=(1, 1))\n",
      "              (time_emb_proj): Linear(in_features=1280, out_features=1280, bias=True)\n",
      "              (norm2): GroupNorm(32, 1280, eps=1e-05, affine=True)\n",
      "              (dropout): Dropout(p=0.0, inplace=False)\n",
      "              (conv2): Conv2d(1280, 1280, kernel_size=(3, 3), stride=(1, 1), padding=(1, 1))\n",
      "              (nonlinearity): SiLU()\n",
      "            )\n",
      "          )\n",
      "          (downsamplers): ModuleList(\n",
      "            (0): Downsample2D(\n",
      "              (conv): Conv2d(1280, 1280, kernel_size=(3, 3), stride=(2, 2), padding=(1, 1))\n",
      "            )\n",
      "          )\n",
      "        )\n",
      "        (3): DownBlock2D(\n",
      "          (resnets): ModuleList(\n",
      "            (0-1): 2 x ResnetBlock2D(\n",
      "              (norm1): GroupNorm(32, 1280, eps=1e-05, affine=True)\n",
      "              (conv1): Conv2d(1280, 1280, kernel_size=(3, 3), stride=(1, 1), padding=(1, 1))\n",
      "              (time_emb_proj): Linear(in_features=1280, out_features=1280, bias=True)\n",
      "              (norm2): GroupNorm(32, 1280, eps=1e-05, affine=True)\n",
      "              (dropout): Dropout(p=0.0, inplace=False)\n",
      "              (conv2): Conv2d(1280, 1280, kernel_size=(3, 3), stride=(1, 1), padding=(1, 1))\n",
      "              (nonlinearity): SiLU()\n",
      "            )\n",
      "          )\n",
      "        )\n",
      "      )\n",
      "      (up_blocks): ModuleList(\n",
      "        (0): UpBlock2D(\n",
      "          (resnets): ModuleList(\n",
      "            (0-2): 3 x ResnetBlock2D(\n",
      "              (norm1): GroupNorm(32, 2560, eps=1e-05, affine=True)\n",
      "              (conv1): Conv2d(2560, 1280, kernel_size=(3, 3), stride=(1, 1), padding=(1, 1))\n",
      "              (time_emb_proj): Linear(in_features=1280, out_features=1280, bias=True)\n",
      "              (norm2): GroupNorm(32, 1280, eps=1e-05, affine=True)\n",
      "              (dropout): Dropout(p=0.0, inplace=False)\n",
      "              (conv2): Conv2d(1280, 1280, kernel_size=(3, 3), stride=(1, 1), padding=(1, 1))\n",
      "              (nonlinearity): SiLU()\n",
      "              (conv_shortcut): Conv2d(2560, 1280, kernel_size=(1, 1), stride=(1, 1))\n",
      "            )\n",
      "          )\n",
      "          (upsamplers): ModuleList(\n",
      "            (0): Upsample2D(\n",
      "              (conv): Conv2d(1280, 1280, kernel_size=(3, 3), stride=(1, 1), padding=(1, 1))\n",
      "            )\n",
      "          )\n",
      "        )\n",
      "        (1): CrossAttnUpBlock2D(\n",
      "          (attentions): ModuleList(\n",
      "            (0-2): 3 x Transformer2DModel(\n",
      "              (norm): GroupNorm(32, 1280, eps=1e-06, affine=True)\n",
      "              (proj_in): lora.Linear(\n",
      "                (base_layer): Linear(in_features=1280, out_features=1280, bias=True)\n",
      "                (lora_dropout): ModuleDict(\n",
      "                  (default): Dropout(p=0.1, inplace=False)\n",
      "                )\n",
      "                (lora_A): ModuleDict(\n",
      "                  (default): Linear(in_features=1280, out_features=4, bias=False)\n",
      "                )\n",
      "                (lora_B): ModuleDict(\n",
      "                  (default): Linear(in_features=4, out_features=1280, bias=False)\n",
      "                )\n",
      "                (lora_embedding_A): ParameterDict()\n",
      "                (lora_embedding_B): ParameterDict()\n",
      "                (lora_magnitude_vector): ModuleDict()\n",
      "              )\n",
      "              (transformer_blocks): ModuleList(\n",
      "                (0): BasicTransformerBlock(\n",
      "                  (norm1): LayerNorm((1280,), eps=1e-05, elementwise_affine=True)\n",
      "                  (attn1): Attention(\n",
      "                    (to_q): Linear(in_features=1280, out_features=1280, bias=False)\n",
      "                    (to_k): Linear(in_features=1280, out_features=1280, bias=False)\n",
      "                    (to_v): Linear(in_features=1280, out_features=1280, bias=False)\n",
      "                    (to_out): ModuleList(\n",
      "                      (0): Linear(in_features=1280, out_features=1280, bias=True)\n",
      "                      (1): Dropout(p=0.0, inplace=False)\n",
      "                    )\n",
      "                  )\n",
      "                  (norm2): LayerNorm((1280,), eps=1e-05, elementwise_affine=True)\n",
      "                  (attn2): Attention(\n",
      "                    (to_q): Linear(in_features=1280, out_features=1280, bias=False)\n",
      "                    (to_k): Linear(in_features=1024, out_features=1280, bias=False)\n",
      "                    (to_v): Linear(in_features=1024, out_features=1280, bias=False)\n",
      "                    (to_out): ModuleList(\n",
      "                      (0): Linear(in_features=1280, out_features=1280, bias=True)\n",
      "                      (1): Dropout(p=0.0, inplace=False)\n",
      "                    )\n",
      "                  )\n",
      "                  (norm3): LayerNorm((1280,), eps=1e-05, elementwise_affine=True)\n",
      "                  (ff): FeedForward(\n",
      "                    (net): ModuleList(\n",
      "                      (0): GEGLU(\n",
      "                        (proj): Linear(in_features=1280, out_features=10240, bias=True)\n",
      "                      )\n",
      "                      (1): Dropout(p=0.0, inplace=False)\n",
      "                      (2): Linear(in_features=5120, out_features=1280, bias=True)\n",
      "                    )\n",
      "                  )\n",
      "                )\n",
      "              )\n",
      "              (proj_out): Linear(in_features=1280, out_features=1280, bias=True)\n",
      "            )\n",
      "          )\n",
      "          (resnets): ModuleList(\n",
      "            (0-1): 2 x ResnetBlock2D(\n",
      "              (norm1): GroupNorm(32, 2560, eps=1e-05, affine=True)\n",
      "              (conv1): Conv2d(2560, 1280, kernel_size=(3, 3), stride=(1, 1), padding=(1, 1))\n",
      "              (time_emb_proj): Linear(in_features=1280, out_features=1280, bias=True)\n",
      "              (norm2): GroupNorm(32, 1280, eps=1e-05, affine=True)\n",
      "              (dropout): Dropout(p=0.0, inplace=False)\n",
      "              (conv2): Conv2d(1280, 1280, kernel_size=(3, 3), stride=(1, 1), padding=(1, 1))\n",
      "              (nonlinearity): SiLU()\n",
      "              (conv_shortcut): Conv2d(2560, 1280, kernel_size=(1, 1), stride=(1, 1))\n",
      "            )\n",
      "            (2): ResnetBlock2D(\n",
      "              (norm1): GroupNorm(32, 1920, eps=1e-05, affine=True)\n",
      "              (conv1): Conv2d(1920, 1280, kernel_size=(3, 3), stride=(1, 1), padding=(1, 1))\n",
      "              (time_emb_proj): Linear(in_features=1280, out_features=1280, bias=True)\n",
      "              (norm2): GroupNorm(32, 1280, eps=1e-05, affine=True)\n",
      "              (dropout): Dropout(p=0.0, inplace=False)\n",
      "              (conv2): Conv2d(1280, 1280, kernel_size=(3, 3), stride=(1, 1), padding=(1, 1))\n",
      "              (nonlinearity): SiLU()\n",
      "              (conv_shortcut): Conv2d(1920, 1280, kernel_size=(1, 1), stride=(1, 1))\n",
      "            )\n",
      "          )\n",
      "          (upsamplers): ModuleList(\n",
      "            (0): Upsample2D(\n",
      "              (conv): Conv2d(1280, 1280, kernel_size=(3, 3), stride=(1, 1), padding=(1, 1))\n",
      "            )\n",
      "          )\n",
      "        )\n",
      "        (2): CrossAttnUpBlock2D(\n",
      "          (attentions): ModuleList(\n",
      "            (0-2): 3 x Transformer2DModel(\n",
      "              (norm): GroupNorm(32, 640, eps=1e-06, affine=True)\n",
      "              (proj_in): lora.Linear(\n",
      "                (base_layer): Linear(in_features=640, out_features=640, bias=True)\n",
      "                (lora_dropout): ModuleDict(\n",
      "                  (default): Dropout(p=0.1, inplace=False)\n",
      "                )\n",
      "                (lora_A): ModuleDict(\n",
      "                  (default): Linear(in_features=640, out_features=4, bias=False)\n",
      "                )\n",
      "                (lora_B): ModuleDict(\n",
      "                  (default): Linear(in_features=4, out_features=640, bias=False)\n",
      "                )\n",
      "                (lora_embedding_A): ParameterDict()\n",
      "                (lora_embedding_B): ParameterDict()\n",
      "                (lora_magnitude_vector): ModuleDict()\n",
      "              )\n",
      "              (transformer_blocks): ModuleList(\n",
      "                (0): BasicTransformerBlock(\n",
      "                  (norm1): LayerNorm((640,), eps=1e-05, elementwise_affine=True)\n",
      "                  (attn1): Attention(\n",
      "                    (to_q): Linear(in_features=640, out_features=640, bias=False)\n",
      "                    (to_k): Linear(in_features=640, out_features=640, bias=False)\n",
      "                    (to_v): Linear(in_features=640, out_features=640, bias=False)\n",
      "                    (to_out): ModuleList(\n",
      "                      (0): Linear(in_features=640, out_features=640, bias=True)\n",
      "                      (1): Dropout(p=0.0, inplace=False)\n",
      "                    )\n",
      "                  )\n",
      "                  (norm2): LayerNorm((640,), eps=1e-05, elementwise_affine=True)\n",
      "                  (attn2): Attention(\n",
      "                    (to_q): Linear(in_features=640, out_features=640, bias=False)\n",
      "                    (to_k): Linear(in_features=1024, out_features=640, bias=False)\n",
      "                    (to_v): Linear(in_features=1024, out_features=640, bias=False)\n",
      "                    (to_out): ModuleList(\n",
      "                      (0): Linear(in_features=640, out_features=640, bias=True)\n",
      "                      (1): Dropout(p=0.0, inplace=False)\n",
      "                    )\n",
      "                  )\n",
      "                  (norm3): LayerNorm((640,), eps=1e-05, elementwise_affine=True)\n",
      "                  (ff): FeedForward(\n",
      "                    (net): ModuleList(\n",
      "                      (0): GEGLU(\n",
      "                        (proj): Linear(in_features=640, out_features=5120, bias=True)\n",
      "                      )\n",
      "                      (1): Dropout(p=0.0, inplace=False)\n",
      "                      (2): Linear(in_features=2560, out_features=640, bias=True)\n",
      "                    )\n",
      "                  )\n",
      "                )\n",
      "              )\n",
      "              (proj_out): Linear(in_features=640, out_features=640, bias=True)\n",
      "            )\n",
      "          )\n",
      "          (resnets): ModuleList(\n",
      "            (0): ResnetBlock2D(\n",
      "              (norm1): GroupNorm(32, 1920, eps=1e-05, affine=True)\n",
      "              (conv1): Conv2d(1920, 640, kernel_size=(3, 3), stride=(1, 1), padding=(1, 1))\n",
      "              (time_emb_proj): Linear(in_features=1280, out_features=640, bias=True)\n",
      "              (norm2): GroupNorm(32, 640, eps=1e-05, affine=True)\n",
      "              (dropout): Dropout(p=0.0, inplace=False)\n",
      "              (conv2): Conv2d(640, 640, kernel_size=(3, 3), stride=(1, 1), padding=(1, 1))\n",
      "              (nonlinearity): SiLU()\n",
      "              (conv_shortcut): Conv2d(1920, 640, kernel_size=(1, 1), stride=(1, 1))\n",
      "            )\n",
      "            (1): ResnetBlock2D(\n",
      "              (norm1): GroupNorm(32, 1280, eps=1e-05, affine=True)\n",
      "              (conv1): Conv2d(1280, 640, kernel_size=(3, 3), stride=(1, 1), padding=(1, 1))\n",
      "              (time_emb_proj): Linear(in_features=1280, out_features=640, bias=True)\n",
      "              (norm2): GroupNorm(32, 640, eps=1e-05, affine=True)\n",
      "              (dropout): Dropout(p=0.0, inplace=False)\n",
      "              (conv2): Conv2d(640, 640, kernel_size=(3, 3), stride=(1, 1), padding=(1, 1))\n",
      "              (nonlinearity): SiLU()\n",
      "              (conv_shortcut): Conv2d(1280, 640, kernel_size=(1, 1), stride=(1, 1))\n",
      "            )\n",
      "            (2): ResnetBlock2D(\n",
      "              (norm1): GroupNorm(32, 960, eps=1e-05, affine=True)\n",
      "              (conv1): Conv2d(960, 640, kernel_size=(3, 3), stride=(1, 1), padding=(1, 1))\n",
      "              (time_emb_proj): Linear(in_features=1280, out_features=640, bias=True)\n",
      "              (norm2): GroupNorm(32, 640, eps=1e-05, affine=True)\n",
      "              (dropout): Dropout(p=0.0, inplace=False)\n",
      "              (conv2): Conv2d(640, 640, kernel_size=(3, 3), stride=(1, 1), padding=(1, 1))\n",
      "              (nonlinearity): SiLU()\n",
      "              (conv_shortcut): Conv2d(960, 640, kernel_size=(1, 1), stride=(1, 1))\n",
      "            )\n",
      "          )\n",
      "          (upsamplers): ModuleList(\n",
      "            (0): Upsample2D(\n",
      "              (conv): Conv2d(640, 640, kernel_size=(3, 3), stride=(1, 1), padding=(1, 1))\n",
      "            )\n",
      "          )\n",
      "        )\n",
      "        (3): CrossAttnUpBlock2D(\n",
      "          (attentions): ModuleList(\n",
      "            (0-2): 3 x Transformer2DModel(\n",
      "              (norm): GroupNorm(32, 320, eps=1e-06, affine=True)\n",
      "              (proj_in): lora.Linear(\n",
      "                (base_layer): Linear(in_features=320, out_features=320, bias=True)\n",
      "                (lora_dropout): ModuleDict(\n",
      "                  (default): Dropout(p=0.1, inplace=False)\n",
      "                )\n",
      "                (lora_A): ModuleDict(\n",
      "                  (default): Linear(in_features=320, out_features=4, bias=False)\n",
      "                )\n",
      "                (lora_B): ModuleDict(\n",
      "                  (default): Linear(in_features=4, out_features=320, bias=False)\n",
      "                )\n",
      "                (lora_embedding_A): ParameterDict()\n",
      "                (lora_embedding_B): ParameterDict()\n",
      "                (lora_magnitude_vector): ModuleDict()\n",
      "              )\n",
      "              (transformer_blocks): ModuleList(\n",
      "                (0): BasicTransformerBlock(\n",
      "                  (norm1): LayerNorm((320,), eps=1e-05, elementwise_affine=True)\n",
      "                  (attn1): Attention(\n",
      "                    (to_q): Linear(in_features=320, out_features=320, bias=False)\n",
      "                    (to_k): Linear(in_features=320, out_features=320, bias=False)\n",
      "                    (to_v): Linear(in_features=320, out_features=320, bias=False)\n",
      "                    (to_out): ModuleList(\n",
      "                      (0): Linear(in_features=320, out_features=320, bias=True)\n",
      "                      (1): Dropout(p=0.0, inplace=False)\n",
      "                    )\n",
      "                  )\n",
      "                  (norm2): LayerNorm((320,), eps=1e-05, elementwise_affine=True)\n",
      "                  (attn2): Attention(\n",
      "                    (to_q): Linear(in_features=320, out_features=320, bias=False)\n",
      "                    (to_k): Linear(in_features=1024, out_features=320, bias=False)\n",
      "                    (to_v): Linear(in_features=1024, out_features=320, bias=False)\n",
      "                    (to_out): ModuleList(\n",
      "                      (0): Linear(in_features=320, out_features=320, bias=True)\n",
      "                      (1): Dropout(p=0.0, inplace=False)\n",
      "                    )\n",
      "                  )\n",
      "                  (norm3): LayerNorm((320,), eps=1e-05, elementwise_affine=True)\n",
      "                  (ff): FeedForward(\n",
      "                    (net): ModuleList(\n",
      "                      (0): GEGLU(\n",
      "                        (proj): Linear(in_features=320, out_features=2560, bias=True)\n",
      "                      )\n",
      "                      (1): Dropout(p=0.0, inplace=False)\n",
      "                      (2): Linear(in_features=1280, out_features=320, bias=True)\n",
      "                    )\n",
      "                  )\n",
      "                )\n",
      "              )\n",
      "              (proj_out): Linear(in_features=320, out_features=320, bias=True)\n",
      "            )\n",
      "          )\n",
      "          (resnets): ModuleList(\n",
      "            (0): ResnetBlock2D(\n",
      "              (norm1): GroupNorm(32, 960, eps=1e-05, affine=True)\n",
      "              (conv1): Conv2d(960, 320, kernel_size=(3, 3), stride=(1, 1), padding=(1, 1))\n",
      "              (time_emb_proj): Linear(in_features=1280, out_features=320, bias=True)\n",
      "              (norm2): GroupNorm(32, 320, eps=1e-05, affine=True)\n",
      "              (dropout): Dropout(p=0.0, inplace=False)\n",
      "              (conv2): Conv2d(320, 320, kernel_size=(3, 3), stride=(1, 1), padding=(1, 1))\n",
      "              (nonlinearity): SiLU()\n",
      "              (conv_shortcut): Conv2d(960, 320, kernel_size=(1, 1), stride=(1, 1))\n",
      "            )\n",
      "            (1-2): 2 x ResnetBlock2D(\n",
      "              (norm1): GroupNorm(32, 640, eps=1e-05, affine=True)\n",
      "              (conv1): Conv2d(640, 320, kernel_size=(3, 3), stride=(1, 1), padding=(1, 1))\n",
      "              (time_emb_proj): Linear(in_features=1280, out_features=320, bias=True)\n",
      "              (norm2): GroupNorm(32, 320, eps=1e-05, affine=True)\n",
      "              (dropout): Dropout(p=0.0, inplace=False)\n",
      "              (conv2): Conv2d(320, 320, kernel_size=(3, 3), stride=(1, 1), padding=(1, 1))\n",
      "              (nonlinearity): SiLU()\n",
      "              (conv_shortcut): Conv2d(640, 320, kernel_size=(1, 1), stride=(1, 1))\n",
      "            )\n",
      "          )\n",
      "        )\n",
      "      )\n",
      "      (mid_block): UNetMidBlock2DCrossAttn(\n",
      "        (attentions): ModuleList(\n",
      "          (0): Transformer2DModel(\n",
      "            (norm): GroupNorm(32, 1280, eps=1e-06, affine=True)\n",
      "            (proj_in): lora.Linear(\n",
      "              (base_layer): Linear(in_features=1280, out_features=1280, bias=True)\n",
      "              (lora_dropout): ModuleDict(\n",
      "                (default): Dropout(p=0.1, inplace=False)\n",
      "              )\n",
      "              (lora_A): ModuleDict(\n",
      "                (default): Linear(in_features=1280, out_features=4, bias=False)\n",
      "              )\n",
      "              (lora_B): ModuleDict(\n",
      "                (default): Linear(in_features=4, out_features=1280, bias=False)\n",
      "              )\n",
      "              (lora_embedding_A): ParameterDict()\n",
      "              (lora_embedding_B): ParameterDict()\n",
      "              (lora_magnitude_vector): ModuleDict()\n",
      "            )\n",
      "            (transformer_blocks): ModuleList(\n",
      "              (0): BasicTransformerBlock(\n",
      "                (norm1): LayerNorm((1280,), eps=1e-05, elementwise_affine=True)\n",
      "                (attn1): Attention(\n",
      "                  (to_q): Linear(in_features=1280, out_features=1280, bias=False)\n",
      "                  (to_k): Linear(in_features=1280, out_features=1280, bias=False)\n",
      "                  (to_v): Linear(in_features=1280, out_features=1280, bias=False)\n",
      "                  (to_out): ModuleList(\n",
      "                    (0): Linear(in_features=1280, out_features=1280, bias=True)\n",
      "                    (1): Dropout(p=0.0, inplace=False)\n",
      "                  )\n",
      "                )\n",
      "                (norm2): LayerNorm((1280,), eps=1e-05, elementwise_affine=True)\n",
      "                (attn2): Attention(\n",
      "                  (to_q): Linear(in_features=1280, out_features=1280, bias=False)\n",
      "                  (to_k): Linear(in_features=1024, out_features=1280, bias=False)\n",
      "                  (to_v): Linear(in_features=1024, out_features=1280, bias=False)\n",
      "                  (to_out): ModuleList(\n",
      "                    (0): Linear(in_features=1280, out_features=1280, bias=True)\n",
      "                    (1): Dropout(p=0.0, inplace=False)\n",
      "                  )\n",
      "                )\n",
      "                (norm3): LayerNorm((1280,), eps=1e-05, elementwise_affine=True)\n",
      "                (ff): FeedForward(\n",
      "                  (net): ModuleList(\n",
      "                    (0): GEGLU(\n",
      "                      (proj): Linear(in_features=1280, out_features=10240, bias=True)\n",
      "                    )\n",
      "                    (1): Dropout(p=0.0, inplace=False)\n",
      "                    (2): Linear(in_features=5120, out_features=1280, bias=True)\n",
      "                  )\n",
      "                )\n",
      "              )\n",
      "            )\n",
      "            (proj_out): Linear(in_features=1280, out_features=1280, bias=True)\n",
      "          )\n",
      "        )\n",
      "        (resnets): ModuleList(\n",
      "          (0-1): 2 x ResnetBlock2D(\n",
      "            (norm1): GroupNorm(32, 1280, eps=1e-05, affine=True)\n",
      "            (conv1): Conv2d(1280, 1280, kernel_size=(3, 3), stride=(1, 1), padding=(1, 1))\n",
      "            (time_emb_proj): Linear(in_features=1280, out_features=1280, bias=True)\n",
      "            (norm2): GroupNorm(32, 1280, eps=1e-05, affine=True)\n",
      "            (dropout): Dropout(p=0.0, inplace=False)\n",
      "            (conv2): Conv2d(1280, 1280, kernel_size=(3, 3), stride=(1, 1), padding=(1, 1))\n",
      "            (nonlinearity): SiLU()\n",
      "          )\n",
      "        )\n",
      "      )\n",
      "      (conv_norm_out): GroupNorm(32, 320, eps=1e-05, affine=True)\n",
      "      (conv_act): SiLU()\n",
      "      (conv_out): Conv2d(320, 4, kernel_size=(3, 3), stride=(1, 1), padding=(1, 1))\n",
      "    )\n",
      "  )\n",
      ") of type <class 'peft.peft_model.PeftModel'> cannot be saved.\n"
     ]
    },
    {
     "name": "stdout",
     "output_type": "stream",
     "text": [
      "Fine-tuning with LoRA completed and model saved.\n"
     ]
    }
   ],
   "source": [
    "#Fine-tune the stable diffusion model by using normal chest X-ray images\n",
…
